…
number of pockets in validation set:  3747
number of pockets in test set:  3772
first 5 pockets in train set of cluster 0 before merging (to verify reproducibility):
['4gi7C01', '6djqD00', '8icoC00', '1ofhB00', '2zceA00']
first 5 pockets in val set of cluster 0 before merging (to verify reproducibility):
['1w46A00', '4j97A00', '4iqlB01', '2wtkB00', '6o7zA00']
first 5 pockets in test set of cluster 0 before merging (to verify reproducibility):
['1tlzA00', '5t5iH01', '5t48A00', '4q5hA00', '5gjcA00']
model architecture:
MoNet(
  (embedding_net): JKEmbeddingNet(
    (conv0): GINMolecularConv(nn=Sequential(
      (0): Linear(in_features=8, out_features=80, bias=True)
      (1): LeakyReLU(negative_slope=0.01)
      (2): Linear(in_features=80, out_features=80, bias=True)
    ))(edge_transformer=Sequential(
      (0): Linear(in_features=1, out_features=8, bias=True)
      (1): LeakyReLU(negative_slope=0.01)
      (2): Linear(in_features=8, out_features=8, bias=True)
      (3): ELU(alpha=1.0)
    ))
    (bn0): BatchNorm1d(80, eps=1e-05, momentum=0.1, affine=True, track_running_stats=True)
    (conv1): GINMolecularConv(nn=Sequential(
      (0): Linear(in_features=80, out_features=80, bias=True)
      (1): LeakyReLU(negative_slope=0.01)
      (2): Linear(in_features=80, out_features=80, bias=True)
    ))(edge_transformer=Sequential(
      (0): Linear(in_features=1, out_features=8, bias=True)
      (1): LeakyReLU(negative_slope=0.01)
      (2): Linear(in_features=8, out_features=80, bias=True)
      (3): ELU(alpha=1.0)
    ))
    (bn1): BatchNorm1d(80, eps=1e-05, momentum=0.1, affine=True, track_running_stats=True)
    (conv2): GINMolecularConv(nn=Sequential(
      (0): Linear(in_features=80, out_features=80, bias=True)
      (1): LeakyReLU(negative_slope=0.01)
      (2): Linear(in_features=80, out_features=80, bias=True)
    ))(edge_transformer=Sequential(
      (0): Linear(in_features=1, out_features=8, bias=True)
      (1): LeakyReLU(negative_slope=0.01)
      (2): Linear(in_features=8, out_features=80, bias=True)
      (3): ELU(alpha=1.0)
    ))
    (bn2): BatchNorm1d(80, eps=1e-05, momentum=0.1, affine=True, track_running_stats=True)
    (conv3): GINMolecularConv(nn=Sequential(
      (0): Linear(in_features=80, out_features=80, bias=True)
      (1): LeakyReLU(negative_slope=0.01)
      (2): Linear(in_features=80, out_features=80, bias=True)
    ))(edge_transformer=Sequential(
      (0): Linear(in_features=1, out_features=8, bias=True)
      (1): LeakyReLU(negative_slope=0.01)
      (2): Linear(in_features=8, out_features=80, bias=True)
      (3): ELU(alpha=1.0)
    ))
    (bn3): BatchNorm1d(80, eps=1e-05, momentum=0.1, affine=True, track_running_stats=True)
    (conv4): GINMolecularConv(nn=Sequential(
      (0): Linear(in_features=80, out_features=80, bias=True)
      (1): LeakyReLU(negative_slope=0.01)
      (2): Linear(in_features=80, out_features=80, bias=True)
    ))(edge_transformer=Sequential(
      (0): Linear(in_features=1, out_features=8, bias=True)
      (1): LeakyReLU(negative_slope=0.01)
      (2): Linear(in_features=8, out_features=80, bias=True)
      (3): ELU(alpha=1.0)
    ))
    (bn4): BatchNorm1d(80, eps=1e-05, momentum=0.1, affine=True, track_running_stats=True)
    (set2set): Set2Set(80, 160)
  )
  (fc1): Linear(in_features=160, out_features=80, bias=True)
  (fc2): Linear(in_features=80, out_features=18, bias=True)
)
optimizer:
Adam (
Parameter Group 0
    amsgrad: False
    betas: (0.9, 0.999)
    eps: 1e-08
    lr: 0.003
    weight_decay: 0.0005
)
initial gamma of FocalLoss:  0
increase gamma of FocalLoss at epochs:  [20, 60, 100]
loss function:
FocalLoss(gamma=0, alpha=1, reduction=mean)
begin training...
epoch: 1, train loss: 2.3486490221592553, acc: 0.3209249214958607, val loss: 2.109089189953953, acc: 0.3784360821990926, test loss: 2.1094267939712186, acc: 0.3828207847295864
…
