…
device:  cuda
number of gpus:  2
features to use:  ['x', 'y', 'z', 'charge', 'hydrophobicity', 'binding_probability', 'sasa', 'sequence_entropy']
number of classes after merging:  7
number of pockets in training set:  10527
number of pockets in validation set:  2254
number of pockets in test set:  2263
number of train positive pairs: 94500
number of train negative pairs: 94500
number of validation positive pairs: 27300
number of validation negative pairs: 27300
model architecture:
ResidualSiameseNet(
  (embedding_net): ResidualEmbeddingNet(
    (conv1): GINMolecularConv(nn=Sequential(
      (0): Linear(in_features=8, out_features=32, bias=True)
      (1): LeakyReLU(negative_slope=0.01)
      (2): Linear(in_features=32, out_features=32, bias=True)
    ))(edge_transformer=Sequential(
      (0): Linear(in_features=1, out_features=8, bias=True)
      (1): LeakyReLU(negative_slope=0.01)
      (2): Linear(in_features=8, out_features=8, bias=True)
      (3): ELU(alpha=1.0)
    ))
    (rb_2): ResidualBlock(
      (bn1): BatchNorm1d(32, eps=1e-05, momentum=0.1, affine=True, track_running_stats=True)
      (conv1): GINMolecularConv(nn=Sequential(
        (0): Linear(in_features=32, out_features=32, bias=True)
        (1): LeakyReLU(negative_slope=0.01)
        (2): Linear(in_features=32, out_features=32, bias=True)
      ))(edge_transformer=Sequential(
        (0): Linear(in_features=1, out_features=8, bias=True)
        (1): LeakyReLU(negative_slope=0.01)
        (2): Linear(in_features=8, out_features=32, bias=True)
        (3): ELU(alpha=1.0)
      ))
      (bn2): BatchNorm1d(32, eps=1e-05, momentum=0.1, affine=True, track_running_stats=True)
      (conv2): GINMolecularConv(nn=Sequential(
        (0): Linear(in_features=32, out_features=32, bias=True)
        (1): LeakyReLU(negative_slope=0.01)
        (2): Linear(in_features=32, out_features=32, bias=True)
      ))(edge_transformer=Sequential(
        (0): Linear(in_features=1, out_features=8, bias=True)
        (1): LeakyReLU(negative_slope=0.01)
        (2): Linear(in_features=8, out_features=32, bias=True)
        (3): ELU(alpha=1.0)
      ))
    )
    (rb_3): ResidualBlock(
      (bn1): BatchNorm1d(32, eps=1e-05, momentum=0.1, affine=True, track_running_stats=True)
      (conv1): GINMolecularConv(nn=Sequential(
        (0): Linear(in_features=32, out_features=32, bias=True)
        (1): LeakyReLU(negative_slope=0.01)
        (2): Linear(in_features=32, out_features=32, bias=True)
      ))(edge_transformer=Sequential(
        (0): Linear(in_features=1, out_features=8, bias=True)
        (1): LeakyReLU(negative_slope=0.01)
        (2): Linear(in_features=8, out_features=32, bias=True)
        (3): ELU(alpha=1.0)
      ))
      (bn2): BatchNorm1d(32, eps=1e-05, momentum=0.1, affine=True, track_running_stats=True)
      (conv2): GINMolecularConv(nn=Sequential(
        (0): Linear(in_features=32, out_features=32, bias=True)
        (1): LeakyReLU(negative_slope=0.01)
        (2): Linear(in_features=32, out_features=32, bias=True)
      ))(edge_transformer=Sequential(
        (0): Linear(in_features=1, out_features=8, bias=True)
        (1): LeakyReLU(negative_slope=0.01)
        (2): Linear(in_features=8, out_features=32, bias=True)
        (3): ELU(alpha=1.0)
      ))
    )
    (rb_4): ResidualBlock(
      (bn1): BatchNorm1d(32, eps=1e-05, momentum=0.1, affine=True, track_running_stats=True)
      (conv1): GINMolecularConv(nn=Sequential(
        (0): Linear(in_features=32, out_features=32, bias=True)
        (1): LeakyReLU(negative_slope=0.01)
        (2): Linear(in_features=32, out_features=32, bias=True)
      ))(edge_transformer=Sequential(
        (0): Linear(in_features=1, out_features=8, bias=True)
        (1): LeakyReLU(negative_slope=0.01)
        (2): Linear(in_features=8, out_features=32, bias=True)
        (3): ELU(alpha=1.0)
      ))
      (bn2): BatchNorm1d(32, eps=1e-05, momentum=0.1, affine=True, track_running_stats=True)
      (conv2): GINMolecularConv(nn=Sequential(
        (0): Linear(in_features=32, out_features=32, bias=True)
        (1): LeakyReLU(negative_slope=0.01)
        (2): Linear(in_features=32, out_features=32, bias=True)
      ))(edge_transformer=Sequential(
        (0): Linear(in_features=1, out_features=8, bias=True)
        (1): LeakyReLU(negative_slope=0.01)
        (2): Linear(in_features=8, out_features=32, bias=True)
        (3): ELU(alpha=1.0)
      ))
    )
    (rb_5): ResidualBlock(
      (bn1): BatchNorm1d(32, eps=1e-05, momentum=0.1, affine=True, track_running_stats=True)
      (conv1): GINMolecularConv(nn=Sequential(
        (0): Linear(in_features=32, out_features=32, bias=True)
        (1): LeakyReLU(negative_slope=0.01)
        (2): Linear(in_features=32, out_features=32, bias=True)
      ))(edge_transformer=Sequential(
        (0): Linear(in_features=1, out_features=8, bias=True)
        (1): LeakyReLU(negative_slope=0.01)
        (2): Linear(in_features=8, out_features=32, bias=True)
        (3): ELU(alpha=1.0)
      ))
      (bn2): BatchNorm1d(32, eps=1e-05, momentum=0.1, affine=True, track_running_stats=True)
      (conv2): GINMolecularConv(nn=Sequential(
        (0): Linear(in_features=32, out_features=32, bias=True)
        (1): LeakyReLU(negative_slope=0.01)
        (2): Linear(in_features=32, out_features=32, bias=True)
      ))(edge_transformer=Sequential(
        (0): Linear(in_features=1, out_features=8, bias=True)
        (1): LeakyReLU(negative_slope=0.01)
        (2): Linear(in_features=8, out_features=32, bias=True)
        (3): ELU(alpha=1.0)
      ))
    )
    (rb_6): ResidualBlock(
      (bn1): BatchNorm1d(32, eps=1e-05, momentum=0.1, affine=True, track_running_stats=True)
      (conv1): GINMolecularConv(nn=Sequential(
        (0): Linear(in_features=32, out_features=32, bias=True)
        (1): LeakyReLU(negative_slope=0.01)
        (2): Linear(in_features=32, out_features=32, bias=True)
      ))(edge_transformer=Sequential(
        (0): Linear(in_features=1, out_features=8, bias=True)
        (1): LeakyReLU(negative_slope=0.01)
        (2): Linear(in_features=8, out_features=32, bias=True)
        (3): ELU(alpha=1.0)
      ))
      (bn2): BatchNorm1d(32, eps=1e-05, momentum=0.1, affine=True, track_running_stats=True)
      (conv2): GINMolecularConv(nn=Sequential(
        (0): Linear(in_features=32, out_features=32, bias=True)
        (1): LeakyReLU(negative_slope=0.01)
        (2): Linear(in_features=32, out_features=32, bias=True)
      ))(edge_transformer=Sequential(
        (0): Linear(in_features=1, out_features=8, bias=True)
        (1): LeakyReLU(negative_slope=0.01)
        (2): Linear(in_features=8, out_features=32, bias=True)
        (3): ELU(alpha=1.0)
      ))
    )
    (rb_7): ResidualBlock(
      (bn1): BatchNorm1d(32, eps=1e-05, momentum=0.1, affine=True, track_running_stats=True)
      (conv1): GINMolecularConv(nn=Sequential(
        (0): Linear(in_features=32, out_features=32, bias=True)
        (1): LeakyReLU(negative_slope=0.01)
        (2): Linear(in_features=32, out_features=32, bias=True)
      ))(edge_transformer=Sequential(
        (0): Linear(in_features=1, out_features=8, bias=True)
        (1): LeakyReLU(negative_slope=0.01)
        (2): Linear(in_features=8, out_features=32, bias=True)
        (3): ELU(alpha=1.0)
      ))
      (bn2): BatchNorm1d(32, eps=1e-05, momentum=0.1, affine=True, track_running_stats=True)
      (conv2): GINMolecularConv(nn=Sequential(
        (0): Linear(in_features=32, out_features=32, bias=True)
        (1): LeakyReLU(negative_slope=0.01)
        (2): Linear(in_features=32, out_features=32, bias=True)
      ))(edge_transformer=Sequential(
        (0): Linear(in_features=1, out_features=8, bias=True)
        (1): LeakyReLU(negative_slope=0.01)
        (2): Linear(in_features=8, out_features=32, bias=True)
        (3): ELU(alpha=1.0)
      ))
    )
    (rb_8): ResidualBlock(
      (bn1): BatchNorm1d(32, eps=1e-05, momentum=0.1, affine=True, track_running_stats=True)
      (conv1): GINMolecularConv(nn=Sequential(
        (0): Linear(in_features=32, out_features=32, bias=True)
        (1): LeakyReLU(negative_slope=0.01)
        (2): Linear(in_features=32, out_features=32, bias=True)
      ))(edge_transformer=Sequential(
        (0): Linear(in_features=1, out_features=8, bias=True)
        (1): LeakyReLU(negative_slope=0.01)
        (2): Linear(in_features=8, out_features=32, bias=True)
        (3): ELU(alpha=1.0)
      ))
      (bn2): BatchNorm1d(32, eps=1e-05, momentum=0.1, affine=True, track_running_stats=True)
      (conv2): GINMolecularConv(nn=Sequential(
        (0): Linear(in_features=32, out_features=32, bias=True)
        (1): LeakyReLU(negative_slope=0.01)
        (2): Linear(in_features=32, out_features=32, bias=True)
      ))(edge_transformer=Sequential(
        (0): Linear(in_features=1, out_features=8, bias=True)
        (1): LeakyReLU(negative_slope=0.01)
        (2): Linear(in_features=8, out_features=32, bias=True)
        (3): ELU(alpha=1.0)
      ))
    )
    (bn_7): BatchNorm1d(32, eps=1e-05, momentum=0.1, affine=True, track_running_stats=True)
    (set2set): Set2Set(32, 64)
  )
)
optimizer:
Adam (
Parameter Group 0
    amsgrad: False
    betas: (0.9, 0.999)
    eps: 1e-08
    lr: 0.006
    weight_decay: 0.001
)
loss function:
ContrastiveLoss(similar_margin=0.0, dissimilar_margin=2.0, normalize=True, mean=True)
epoch: 1, train loss: 0.8370855162282469, validation loss: 0.7958732255649217.
…
