…
number of epochs to train: 60
batch size: 256
number of workers to load data:  36
device:  cuda
number of gpus:  2
features to use:  ['charge', 'hydrophobicity', 'binding_probability', 'distance_to_center', 'sequence_entropy']
number of pockets in training set:  10520
number of pockets in validation set:  2245
number of pockets in test set:  2279
number of train positive pairs: 60450
number of train negative pairs: 63250
number of validation positive pairs: 16423
number of validation negative pairs: 17706
model architecture:
SiameseNet(
  (embedding_net): EmbeddingNet(
    (conv1): GINMolecularConv(nn=Sequential(
      (0): Linear(in_features=5, out_features=32, bias=True)
      (1): LeakyReLU(negative_slope=0.01)
      (2): Linear(in_features=32, out_features=32, bias=True)
    ))(edge_transformer=Sequential(
      (0): Linear(in_features=1, out_features=5, bias=True)
      (1): LeakyReLU(negative_slope=0.01)
      (2): Linear(in_features=5, out_features=5, bias=True)
      (3): ELU(alpha=1.0)
    ))
    (bn1): BatchNorm1d(32, eps=1e-05, momentum=0.1, affine=True, track_running_stats=True)
    (conv2): GINMolecularConv(nn=Sequential(
      (0): Linear(in_features=32, out_features=32, bias=True)
      (1): LeakyReLU(negative_slope=0.01)
      (2): Linear(in_features=32, out_features=32, bias=True)
    ))(edge_transformer=Sequential(
      (0): Linear(in_features=1, out_features=32, bias=True)
      (1): LeakyReLU(negative_slope=0.01)
      (2): Linear(in_features=32, out_features=32, bias=True)
      (3): ELU(alpha=1.0)
    ))
    (bn2): BatchNorm1d(32, eps=1e-05, momentum=0.1, affine=True, track_running_stats=True)
    (conv3): GINMolecularConv(nn=Sequential(
      (0): Linear(in_features=32, out_features=32, bias=True)
      (1): LeakyReLU(negative_slope=0.01)
      (2): Linear(in_features=32, out_features=32, bias=True)
    ))(edge_transformer=Sequential(
      (0): Linear(in_features=1, out_features=32, bias=True)
      (1): LeakyReLU(negative_slope=0.01)
      (2): Linear(in_features=32, out_features=32, bias=True)
      (3): ELU(alpha=1.0)
    ))
    (bn3): BatchNorm1d(32, eps=1e-05, momentum=0.1, affine=True, track_running_stats=True)
    (conv4): GINMolecularConv(nn=Sequential(
      (0): Linear(in_features=32, out_features=32, bias=True)
      (1): LeakyReLU(negative_slope=0.01)
      (2): Linear(in_features=32, out_features=32, bias=True)
    ))(edge_transformer=Sequential(
      (0): Linear(in_features=1, out_features=32, bias=True)
      (1): LeakyReLU(negative_slope=0.01)
      (2): Linear(in_features=32, out_features=32, bias=True)
      (3): ELU(alpha=1.0)
    ))
    (bn4): BatchNorm1d(32, eps=1e-05, momentum=0.1, affine=True, track_running_stats=True)
  )
)
optimizer:
Adam (
Parameter Group 0
    amsgrad: False
    betas: (0.9, 0.999)
    eps: 1e-08
    lr: 0.003
    weight_decay: 0.0005
)
loss function:
ContrastiveLoss(margin=2.0, normalize=True, mean=True)
epoch: 1, train loss: 0.9101358244394042, validation loss: 0.8895679592244453.
epoch: 2, train loss: 0.8453647996537031, validation loss: 0.8547265614090965.
…
