…
number of workers to load data:  36
device:  cuda
number of gpus:  2
features to use:  ['x', 'y', 'z', 'charge', 'hydrophobicity', 'binding_probability', 'sasa', 'sequence_entropy']
number of pockets in training set:  10526
number of pockets in validation set:  2252
number of pockets in test set:  2266
number of train positive pairs: 90000
number of train negative pairs: 90000
number of validation positive pairs: 27000
number of validation negative pairs: 27000
model architecture:
SiameseNet(
  (embedding_net): EmbeddingNet(
    (set2set): Set2Set(32, 64)
    (conv1): GINMolecularConv(nn=Sequential(
      (0): Linear(in_features=8, out_features=32, bias=True)
      (1): LeakyReLU(negative_slope=0.01)
      (2): Linear(in_features=32, out_features=32, bias=True)
    ))(edge_transformer=Sequential(
      (0): Linear(in_features=1, out_features=8, bias=True)
      (1): LeakyReLU(negative_slope=0.01)
      (2): Linear(in_features=8, out_features=8, bias=True)
      (3): ELU(alpha=1.0)
    ))
    (bn1): BatchNorm1d(32, eps=1e-05, momentum=0.1, affine=True, track_running_stats=True)
    (conv2): GINMolecularConv(nn=Sequential(
      (0): Linear(in_features=32, out_features=32, bias=True)
      (1): LeakyReLU(negative_slope=0.01)
      (2): Linear(in_features=32, out_features=32, bias=True)
    ))(edge_transformer=Sequential(
      (0): Linear(in_features=1, out_features=8, bias=True)
      (1): LeakyReLU(negative_slope=0.01)
      (2): Linear(in_features=8, out_features=32, bias=True)
      (3): ELU(alpha=1.0)
    ))
    (bn2): BatchNorm1d(32, eps=1e-05, momentum=0.1, affine=True, track_running_stats=True)
    (conv3): GINMolecularConv(nn=Sequential(
      (0): Linear(in_features=32, out_features=32, bias=True)
      (1): LeakyReLU(negative_slope=0.01)
      (2): Linear(in_features=32, out_features=32, bias=True)
    ))(edge_transformer=Sequential(
      (0): Linear(in_features=1, out_features=8, bias=True)
      (1): LeakyReLU(negative_slope=0.01)
      (2): Linear(in_features=8, out_features=32, bias=True)
      (3): ELU(alpha=1.0)
    ))
    (bn3): BatchNorm1d(32, eps=1e-05, momentum=0.1, affine=True, track_running_stats=True)
    (conv4): GINMolecularConv(nn=Sequential(
      (0): Linear(in_features=32, out_features=32, bias=True)
      (1): LeakyReLU(negative_slope=0.01)
      (2): Linear(in_features=32, out_features=32, bias=True)
    ))(edge_transformer=Sequential(
      (0): Linear(in_features=1, out_features=8, bias=True)
      (1): LeakyReLU(negative_slope=0.01)
      (2): Linear(in_features=8, out_features=32, bias=True)
      (3): ELU(alpha=1.0)
    ))
    (bn4): BatchNorm1d(32, eps=1e-05, momentum=0.1, affine=True, track_running_stats=True)
  )
)
optimizer:
Adam (
Parameter Group 0
    amsgrad: False
    betas: (0.9, 0.999)
    eps: 1e-08
    lr: 0.003
    weight_decay: 0.0005
)
loss function:
ContrastiveLoss(margin=2.0, normalize=True, mean=True)
epoch: 1, train loss: 0.9199728146870931, validation loss: 0.9222076074105722.
epoch: 2, train loss: 0.823177496846517, validation loss: 0.8110485455548322.
…
