…
features to use:  ['r', 'theta', 'phi', 'sasa', 'charge', 'hydrophobicity', 'binding_probability', 'sequence_entropy']
number of classes after merging:  16
number of pockets in training set:  15714
number of pockets in validation set:  3361
number of pockets in test set:  3382
first 5 pockets in train set of cluster 0 before merging (to verify reproducibility):
['6brxA00', '4c0lA00', '3rs8A02', '4nk4F00', '5fogD00']
number of train positive pairs: 256000
number of train negative pairs: 540000
model architecture:
ResidualSiameseNet(
  (embedding_net): ResidualEmbeddingNet(
    (conv1): GINMolecularConv(nn=Sequential(
      (0): Linear(in_features=8, out_features=64, bias=True)
      (1): LeakyReLU(negative_slope=0.01)
      (2): Linear(in_features=64, out_features=64, bias=True)
    ))(edge_transformer=Sequential(
      (0): Linear(in_features=1, out_features=8, bias=True)
      (1): LeakyReLU(negative_slope=0.01)
      (2): Linear(in_features=8, out_features=8, bias=True)
      (3): ELU(alpha=1.0)
    ))
    (rb_2): ResidualBlock(
      (bn1): BatchNorm1d(64, eps=1e-05, momentum=0.1, affine=True, track_running_stats=True)
      (conv1): GINMolecularConv(nn=Sequential(
        (0): Linear(in_features=64, out_features=64, bias=True)
        (1): LeakyReLU(negative_slope=0.01)
        (2): Linear(in_features=64, out_features=64, bias=True)
      ))(edge_transformer=Sequential(
        (0): Linear(in_features=1, out_features=8, bias=True)
        (1): LeakyReLU(negative_slope=0.01)
        (2): Linear(in_features=8, out_features=64, bias=True)
        (3): ELU(alpha=1.0)
      ))
    )
    (rb_3): ResidualBlock(
      (bn1): BatchNorm1d(64, eps=1e-05, momentum=0.1, affine=True, track_running_stats=True)
      (conv1): GINMolecularConv(nn=Sequential(
        (0): Linear(in_features=64, out_features=64, bias=True)
        (1): LeakyReLU(negative_slope=0.01)
        (2): Linear(in_features=64, out_features=64, bias=True)
      ))(edge_transformer=Sequential(
        (0): Linear(in_features=1, out_features=8, bias=True)
        (1): LeakyReLU(negative_slope=0.01)
        (2): Linear(in_features=8, out_features=64, bias=True)
        (3): ELU(alpha=1.0)
      ))
    )
    (rb_4): ResidualBlock(
      (bn1): BatchNorm1d(64, eps=1e-05, momentum=0.1, affine=True, track_running_stats=True)
      (conv1): GINMolecularConv(nn=Sequential(
        (0): Linear(in_features=64, out_features=64, bias=True)
        (1): LeakyReLU(negative_slope=0.01)
        (2): Linear(in_features=64, out_features=64, bias=True)
      ))(edge_transformer=Sequential(
        (0): Linear(in_features=1, out_features=8, bias=True)
        (1): LeakyReLU(negative_slope=0.01)
        (2): Linear(in_features=8, out_features=64, bias=True)
        (3): ELU(alpha=1.0)
      ))
    )
    (rb_5): ResidualBlock(
      (bn1): BatchNorm1d(64, eps=1e-05, momentum=0.1, affine=True, track_running_stats=True)
      (conv1): GINMolecularConv(nn=Sequential(
        (0): Linear(in_features=64, out_features=64, bias=True)
        (1): LeakyReLU(negative_slope=0.01)
        (2): Linear(in_features=64, out_features=64, bias=True)
      ))(edge_transformer=Sequential(
        (0): Linear(in_features=1, out_features=8, bias=True)
        (1): LeakyReLU(negative_slope=0.01)
        (2): Linear(in_features=8, out_features=64, bias=True)
        (3): ELU(alpha=1.0)
      ))
    )
    (rb_6): ResidualBlock(
      (bn1): BatchNorm1d(64, eps=1e-05, momentum=0.1, affine=True, track_running_stats=True)
      (conv1): GINMolecularConv(nn=Sequential(
        (0): Linear(in_features=64, out_features=64, bias=True)
        (1): LeakyReLU(negative_slope=0.01)
        (2): Linear(in_features=64, out_features=64, bias=True)
      ))(edge_transformer=Sequential(
        (0): Linear(in_features=1, out_features=8, bias=True)
        (1): LeakyReLU(negative_slope=0.01)
        (2): Linear(in_features=8, out_features=64, bias=True)
        (3): ELU(alpha=1.0)
      ))
    )
    (rb_7): ResidualBlock(
      (bn1): BatchNorm1d(64, eps=1e-05, momentum=0.1, affine=True, track_running_stats=True)
      (conv1): GINMolecularConv(nn=Sequential(
        (0): Linear(in_features=64, out_features=64, bias=True)
        (1): LeakyReLU(negative_slope=0.01)
        (2): Linear(in_features=64, out_features=64, bias=True)
      ))(edge_transformer=Sequential(
        (0): Linear(in_features=1, out_features=8, bias=True)
        (1): LeakyReLU(negative_slope=0.01)
        (2): Linear(in_features=8, out_features=64, bias=True)
        (3): ELU(alpha=1.0)
      ))
    )
    (rb_8): ResidualBlock(
      (bn1): BatchNorm1d(64, eps=1e-05, momentum=0.1, affine=True, track_running_stats=True)
      (conv1): GINMolecularConv(nn=Sequential(
        (0): Linear(in_features=64, out_features=64, bias=True)
        (1): LeakyReLU(negative_slope=0.01)
        (2): Linear(in_features=64, out_features=64, bias=True)
      ))(edge_transformer=Sequential(
        (0): Linear(in_features=1, out_features=8, bias=True)
        (1): LeakyReLU(negative_slope=0.01)
        (2): Linear(in_features=8, out_features=64, bias=True)
        (3): ELU(alpha=1.0)
      ))
    )
    (bn_8): BatchNorm1d(64, eps=1e-05, momentum=0.1, affine=True, track_running_stats=True)
    (set2set): Set2Set(64, 128)
  )
)
optimizer:
Adam (
Parameter Group 0
    amsgrad: False
    betas: (0.9, 0.999)
    eps: 1e-08
    lr: 0.003
    weight_decay: 0.0005
)
loss function:
ContrastiveLoss(similar_margin=0.0, dissimilar_margin=2.0, normalize=True, mean=True)
epoch: 1, train loss: 0.6769690096294461, train acc: 0.7422680412371134, validation acc: 0.635525141326986.
…
