…
dissimilar margin of contrastive loss: 2.0
number of workers to load data:  36
device:  cuda
number of gpus:  2
features to use:  ['r', 'theta', 'phi', 'sasa', 'charge', 'hydrophobicity', 'binding_probability', 'sequence_entropy']
number of classes after merging:  8
number of pockets in training set:  12475
number of pockets in validation set:  2670
number of pockets in test set:  2681
number of train positive pairs: 192000
number of train negative pairs: 224000
model architecture:
ResidualSiameseNet(
  (embedding_net): ResidualEmbeddingNet(
    (conv1): GINMolecularConv(nn=Sequential(
      (0): Linear(in_features=8, out_features=48, bias=True)
      (1): LeakyReLU(negative_slope=0.01)
      (2): Linear(in_features=48, out_features=48, bias=True)
    ))(edge_transformer=Sequential(
      (0): Linear(in_features=1, out_features=8, bias=True)
      (1): LeakyReLU(negative_slope=0.01)
      (2): Linear(in_features=8, out_features=8, bias=True)
      (3): ELU(alpha=1.0)
    ))
    (rb_2): ResidualBlock(
      (bn1): BatchNorm1d(48, eps=1e-05, momentum=0.1, affine=True, track_running_stats=True)
      (conv1): GINMolecularConv(nn=Sequential(
        (0): Linear(in_features=48, out_features=48, bias=True)
        (1): LeakyReLU(negative_slope=0.01)
        (2): Linear(in_features=48, out_features=48, bias=True)
      ))(edge_transformer=Sequential(
        (0): Linear(in_features=1, out_features=8, bias=True)
        (1): LeakyReLU(negative_slope=0.01)
        (2): Linear(in_features=8, out_features=48, bias=True)
        (3): ELU(alpha=1.0)
      ))
    )
    (rb_3): ResidualBlock(
      (bn1): BatchNorm1d(48, eps=1e-05, momentum=0.1, affine=True, track_running_stats=True)
      (conv1): GINMolecularConv(nn=Sequential(
        (0): Linear(in_features=48, out_features=48, bias=True)
        (1): LeakyReLU(negative_slope=0.01)
        (2): Linear(in_features=48, out_features=48, bias=True)
      ))(edge_transformer=Sequential(
        (0): Linear(in_features=1, out_features=8, bias=True)
        (1): LeakyReLU(negative_slope=0.01)
        (2): Linear(in_features=8, out_features=48, bias=True)
        (3): ELU(alpha=1.0)
      ))
    )
    (rb_4): ResidualBlock(
      (bn1): BatchNorm1d(48, eps=1e-05, momentum=0.1, affine=True, track_running_stats=True)
      (conv1): GINMolecularConv(nn=Sequential(
        (0): Linear(in_features=48, out_features=48, bias=True)
        (1): LeakyReLU(negative_slope=0.01)
        (2): Linear(in_features=48, out_features=48, bias=True)
      ))(edge_transformer=Sequential(
        (0): Linear(in_features=1, out_features=8, bias=True)
        (1): LeakyReLU(negative_slope=0.01)
        (2): Linear(in_features=8, out_features=48, bias=True)
        (3): ELU(alpha=1.0)
      ))
    )
    (rb_5): ResidualBlock(
      (bn1): BatchNorm1d(48, eps=1e-05, momentum=0.1, affine=True, track_running_stats=True)
      (conv1): GINMolecularConv(nn=Sequential(
        (0): Linear(in_features=48, out_features=48, bias=True)
        (1): LeakyReLU(negative_slope=0.01)
        (2): Linear(in_features=48, out_features=48, bias=True)
      ))(edge_transformer=Sequential(
        (0): Linear(in_features=1, out_features=8, bias=True)
        (1): LeakyReLU(negative_slope=0.01)
        (2): Linear(in_features=8, out_features=48, bias=True)
        (3): ELU(alpha=1.0)
      ))
    )
    (rb_6): ResidualBlock(
      (bn1): BatchNorm1d(48, eps=1e-05, momentum=0.1, affine=True, track_running_stats=True)
      (conv1): GINMolecularConv(nn=Sequential(
        (0): Linear(in_features=48, out_features=48, bias=True)
        (1): LeakyReLU(negative_slope=0.01)
        (2): Linear(in_features=48, out_features=48, bias=True)
      ))(edge_transformer=Sequential(
        (0): Linear(in_features=1, out_features=8, bias=True)
        (1): LeakyReLU(negative_slope=0.01)
        (2): Linear(in_features=8, out_features=48, bias=True)
        (3): ELU(alpha=1.0)
      ))
    )
    (rb_7): ResidualBlock(
      (bn1): BatchNorm1d(48, eps=1e-05, momentum=0.1, affine=True, track_running_stats=True)
      (conv1): GINMolecularConv(nn=Sequential(
        (0): Linear(in_features=48, out_features=48, bias=True)
        (1): LeakyReLU(negative_slope=0.01)
        (2): Linear(in_features=48, out_features=48, bias=True)
      ))(edge_transformer=Sequential(
        (0): Linear(in_features=1, out_features=8, bias=True)
        (1): LeakyReLU(negative_slope=0.01)
        (2): Linear(in_features=8, out_features=48, bias=True)
        (3): ELU(alpha=1.0)
      ))
    )
    (rb_8): ResidualBlock(
      (bn1): BatchNorm1d(48, eps=1e-05, momentum=0.1, affine=True, track_running_stats=True)
      (conv1): GINMolecularConv(nn=Sequential(
        (0): Linear(in_features=48, out_features=48, bias=True)
        (1): LeakyReLU(negative_slope=0.01)
        (2): Linear(in_features=48, out_features=48, bias=True)
      ))(edge_transformer=Sequential(
        (0): Linear(in_features=1, out_features=8, bias=True)
        (1): LeakyReLU(negative_slope=0.01)
        (2): Linear(in_features=8, out_features=48, bias=True)
        (3): ELU(alpha=1.0)
      ))
    )
    (bn_8): BatchNorm1d(48, eps=1e-05, momentum=0.1, affine=True, track_running_stats=True)
    (set2set): Set2Set(48, 96)
  )
)
optimizer:
Adam (
Parameter Group 0
    amsgrad: False
    betas: (0.9, 0.999)
    eps: 1e-08
    lr: 0.003
    weight_decay: 0.0005
)
loss function:
ContrastiveLoss(similar_margin=0.0, dissimilar_margin=2.0, normalize=True, mean=True)
epoch: 1, train loss: 0.7246021546217112, train acc: 0.7934328837508028, validation acc: 0.7064564564564565.
…
