…
how to merge clusters:  [[0, 9, 12], [1, 5, 11], 2, [3, 8, 13], 4, 6, 7, [10, 16], 15, 17, 18]
features to use:  ['r', 'theta', 'phi', 'sasa', 'charge', 'hydrophobicity', 'binding_probability', 'sequence_entropy']
number of epochs:  120
learning rate decay at epoch:  60
batch size:  256
number of workers to load data:  36
device:  cuda
number of classes after merging:  11
number of pockets in training set:  14097
number of pockets in validation set:  3016
number of pockets in test set:  3031
model architecture:
MoNet(
  (embedding_net): JKEmbeddingNet(
    (conv0): GINMolecularConv(nn=Sequential(
      (0): Linear(in_features=8, out_features=64, bias=True)
      (1): LeakyReLU(negative_slope=0.01)
      (2): Linear(in_features=64, out_features=64, bias=True)
    ))(edge_transformer=Sequential(
      (0): Linear(in_features=1, out_features=8, bias=True)
      (1): LeakyReLU(negative_slope=0.01)
      (2): Linear(in_features=8, out_features=8, bias=True)
      (3): ELU(alpha=1.0)
    ))
    (bn0): BatchNorm1d(64, eps=1e-05, momentum=0.1, affine=True, track_running_stats=True)
    (conv1): GINMolecularConv(nn=Sequential(
      (0): Linear(in_features=64, out_features=64, bias=True)
      (1): LeakyReLU(negative_slope=0.01)
      (2): Linear(in_features=64, out_features=64, bias=True)
    ))(edge_transformer=Sequential(
      (0): Linear(in_features=1, out_features=8, bias=True)
      (1): LeakyReLU(negative_slope=0.01)
      (2): Linear(in_features=8, out_features=64, bias=True)
      (3): ELU(alpha=1.0)
    ))
    (bn1): BatchNorm1d(64, eps=1e-05, momentum=0.1, affine=True, track_running_stats=True)
    (conv2): GINMolecularConv(nn=Sequential(
      (0): Linear(in_features=64, out_features=64, bias=True)
      (1): LeakyReLU(negative_slope=0.01)
      (2): Linear(in_features=64, out_features=64, bias=True)
    ))(edge_transformer=Sequential(
      (0): Linear(in_features=1, out_features=8, bias=True)
      (1): LeakyReLU(negative_slope=0.01)
      (2): Linear(in_features=8, out_features=64, bias=True)
      (3): ELU(alpha=1.0)
    ))
    (bn2): BatchNorm1d(64, eps=1e-05, momentum=0.1, affine=True, track_running_stats=True)
    (conv3): GINMolecularConv(nn=Sequential(
      (0): Linear(in_features=64, out_features=64, bias=True)
      (1): LeakyReLU(negative_slope=0.01)
      (2): Linear(in_features=64, out_features=64, bias=True)
    ))(edge_transformer=Sequential(
      (0): Linear(in_features=1, out_features=8, bias=True)
      (1): LeakyReLU(negative_slope=0.01)
      (2): Linear(in_features=8, out_features=64, bias=True)
      (3): ELU(alpha=1.0)
    ))
    (bn3): BatchNorm1d(64, eps=1e-05, momentum=0.1, affine=True, track_running_stats=True)
    (conv4): GINMolecularConv(nn=Sequential(
      (0): Linear(in_features=64, out_features=64, bias=True)
      (1): LeakyReLU(negative_slope=0.01)
      (2): Linear(in_features=64, out_features=64, bias=True)
    ))(edge_transformer=Sequential(
      (0): Linear(in_features=1, out_features=8, bias=True)
      (1): LeakyReLU(negative_slope=0.01)
      (2): Linear(in_features=8, out_features=64, bias=True)
      (3): ELU(alpha=1.0)
    ))
    (bn4): BatchNorm1d(64, eps=1e-05, momentum=0.1, affine=True, track_running_stats=True)
    (set2set): Set2Set(64, 128)
  )
  (fc1): Linear(in_features=128, out_features=64, bias=True)
  (fc2): Linear(in_features=64, out_features=11, bias=True)
)
optimizer:
Adam (
Parameter Group 0
    amsgrad: False
    betas: (0.9, 0.999)
    eps: 1e-08
    lr: 0.003
    weight_decay: 0.0005
)
initial gamma of FocalLoss:  0
increase gamma of FocalLoss at epochs:  [20, 60, 100]
loss function:
FocalLoss(gamma=0, alpha=1, reduction=mean)
begin training...
epoch: 1, train loss: 1.9094857202909292, acc: 0.3858977087323544, val loss: 1.6724377190718915, acc: 0.4360079575596817, test loss: 1.6967955698317247, acc: 0.42758165621906963
…
