seed:  666
number of classes: 10
number of epochs to train: 60
batch size: 64
number of workers to load data:  36
device:  cuda
number of gpus:  2
number of pockets in training set:  10526
number of pockets in validation set:  2252
number of pockets in test set:  2266
model architecture:
MoNet(
  (conv1): GINMolecularConv(nn=Sequential(
    (0): Linear(in_features=5, out_features=32, bias=True)
    (1): LeakyReLU(negative_slope=0.01)
    (2): Linear(in_features=32, out_features=32, bias=True)
  ))(edge_transformer=Sequential(
    (0): Linear(in_features=1, out_features=5, bias=True)
    (1): LeakyReLU(negative_slope=0.01)
    (2): Linear(in_features=5, out_features=5, bias=True)
    (3): ELU(alpha=1.0)
  ))
  (bn1): BatchNorm1d(32, eps=1e-05, momentum=0.1, affine=True, track_running_stats=True)
  (conv2): GINMolecularConv(nn=Sequential(
    (0): Linear(in_features=32, out_features=32, bias=True)
    (1): LeakyReLU(negative_slope=0.01)
    (2): Linear(in_features=32, out_features=32, bias=True)
  ))(edge_transformer=Sequential(
    (0): Linear(in_features=1, out_features=32, bias=True)
    (1): LeakyReLU(negative_slope=0.01)
    (2): Linear(in_features=32, out_features=32, bias=True)
    (3): ELU(alpha=1.0)
  ))
  (bn2): BatchNorm1d(32, eps=1e-05, momentum=0.1, affine=True, track_running_stats=True)
  (conv3): GINMolecularConv(nn=Sequential(
    (0): Linear(in_features=32, out_features=32, bias=True)
    (1): LeakyReLU(negative_slope=0.01)
    (2): Linear(in_features=32, out_features=32, bias=True)
  ))(edge_transformer=Sequential(
    (0): Linear(in_features=1, out_features=32, bias=True)
    (1): LeakyReLU(negative_slope=0.01)
    (2): Linear(in_features=32, out_features=32, bias=True)
    (3): ELU(alpha=1.0)
  ))
  (bn3): BatchNorm1d(32, eps=1e-05, momentum=0.1, affine=True, track_running_stats=True)
  (conv4): GINMolecularConv(nn=Sequential(
    (0): Linear(in_features=32, out_features=32, bias=True)
    (1): LeakyReLU(negative_slope=0.01)
    (2): Linear(in_features=32, out_features=32, bias=True)
  ))(edge_transformer=Sequential(
    (0): Linear(in_features=1, out_features=32, bias=True)
    (1): LeakyReLU(negative_slope=0.01)
    (2): Linear(in_features=32, out_features=32, bias=True)
    (3): ELU(alpha=1.0)
  ))
  (bn4): BatchNorm1d(32, eps=1e-05, momentum=0.1, affine=True, track_running_stats=True)
  (fc1): Linear(in_features=32, out_features=32, bias=True)
  (fc2): Linear(in_features=32, out_features=10, bias=True)
)
optimizer:
Adam (
Parameter Group 0
    amsgrad: False
    betas: (0.9, 0.999)
    eps: 1e-08
    lr: 0.001
    weight_decay: 0.0005
)
loss function:
NLLLoss()
begin training...
epoch: 1, train loss: 8.466229356107617, acc: 0.2440623218696561, val loss: 2.794545306617371, acc: 0.09813499111900532
epoch: 2, train loss: 2.3528358563030487, acc: 0.2253467604028121, val loss: 2.2923794123038093, acc: 0.20293072824156305
…
