…
number of train positive pairs: 280000
number of train negative pairs: 570000
number of epochs to train for hard pairs:  120
learning rate decay at epoch for hard pairs:  50
begin to select hard pairs at epoch 1
batch size for hard pairs:  128
number of hardest positive pairs for each mini-batch:  192
number of hardest negative pairs for each mini-batch:  256

*******************************************************
             train by random pairs
*******************************************************
model architecture:
SiameseNet(
  (embedding_net): JKEmbeddingNet(
    (conv0): GINMolecularConv(nn=Sequential(
      (0): Linear(in_features=8, out_features=80, bias=True)
      (1): LeakyReLU(negative_slope=0.01)
      (2): Linear(in_features=80, out_features=80, bias=True)
    ))(edge_transformer=Sequential(
      (0): Linear(in_features=1, out_features=8, bias=True)
      (1): LeakyReLU(negative_slope=0.01)
      (2): Linear(in_features=8, out_features=8, bias=True)
      (3): ELU(alpha=1.0)
    ))
    (bn0): BatchNorm1d(80, eps=1e-05, momentum=0.1, affine=True, track_running_stats=True)
    (conv1): GINMolecularConv(nn=Sequential(
      (0): Linear(in_features=80, out_features=80, bias=True)
      (1): LeakyReLU(negative_slope=0.01)
      (2): Linear(in_features=80, out_features=80, bias=True)
    ))(edge_transformer=Sequential(
      (0): Linear(in_features=1, out_features=8, bias=True)
      (1): LeakyReLU(negative_slope=0.01)
      (2): Linear(in_features=8, out_features=80, bias=True)
      (3): ELU(alpha=1.0)
    ))
    (bn1): BatchNorm1d(80, eps=1e-05, momentum=0.1, affine=True, track_running_stats=True)
    (conv2): GINMolecularConv(nn=Sequential(
      (0): Linear(in_features=80, out_features=80, bias=True)
      (1): LeakyReLU(negative_slope=0.01)
      (2): Linear(in_features=80, out_features=80, bias=True)
    ))(edge_transformer=Sequential(
      (0): Linear(in_features=1, out_features=8, bias=True)
      (1): LeakyReLU(negative_slope=0.01)
      (2): Linear(in_features=8, out_features=80, bias=True)
      (3): ELU(alpha=1.0)
    ))
    (bn2): BatchNorm1d(80, eps=1e-05, momentum=0.1, affine=True, track_running_stats=True)
    (conv3): GINMolecularConv(nn=Sequential(
      (0): Linear(in_features=80, out_features=80, bias=True)
      (1): LeakyReLU(negative_slope=0.01)
      (2): Linear(in_features=80, out_features=80, bias=True)
    ))(edge_transformer=Sequential(
      (0): Linear(in_features=1, out_features=8, bias=True)
      (1): LeakyReLU(negative_slope=0.01)
      (2): Linear(in_features=8, out_features=80, bias=True)
      (3): ELU(alpha=1.0)
    ))
    (bn3): BatchNorm1d(80, eps=1e-05, momentum=0.1, affine=True, track_running_stats=True)
    (conv4): GINMolecularConv(nn=Sequential(
      (0): Linear(in_features=80, out_features=80, bias=True)
      (1): LeakyReLU(negative_slope=0.01)
      (2): Linear(in_features=80, out_features=80, bias=True)
    ))(edge_transformer=Sequential(
      (0): Linear(in_features=1, out_features=8, bias=True)
      (1): LeakyReLU(negative_slope=0.01)
      (2): Linear(in_features=8, out_features=80, bias=True)
      (3): ELU(alpha=1.0)
    ))
    (bn4): BatchNorm1d(80, eps=1e-05, momentum=0.1, affine=True, track_running_stats=True)
    (set2set): Set2Set(80, 160)
  )
)
optimizer:
Adam (
Parameter Group 0
    amsgrad: False
    betas: (0.9, 0.999)
    eps: 1e-08
    lr: 0.003
    weight_decay: 0.0005
)
loss function:
ContrastiveLoss(similar_margin=0.0, dissimilar_margin=2.0, normalize=True, mean=True)
epoch: 1, train loss: 0.862642737713982, train acc: 0.7125157017243349, validation acc: 0.5948759007205765.
…
