…
first 5 pockets in train set of cluster 0 before merging (to verify reproducibility):
['6brxA00', '4c0lA00', '3rs8A02', '4nk4F00', '5fogD00']
first 5 pockets in val set of cluster 0 before merging (to verify reproducibility):
['4d86A00', '4u00A00', '1pujA00', '3nt5A00', '4j1nB01']
first 5 pockets in test set of cluster 0 before merging (to verify reproducibility):
['4k28A00', '6hwlB00', '3upqA01', '2p2bA00', '1h5rB02']
number of train positive pairs: 176000
number of train negative pairs: 264000
model architecture:
JKSiameseNet(
  (embedding_net): JKEmbeddingNet(
    (conv0): GINMolecularConv(nn=Sequential(
      (0): Linear(in_features=8, out_features=48, bias=True)
      (1): LeakyReLU(negative_slope=0.01)
      (2): Linear(in_features=48, out_features=48, bias=True)
    ))(edge_transformer=Sequential(
      (0): Linear(in_features=1, out_features=8, bias=True)
      (1): LeakyReLU(negative_slope=0.01)
      (2): Linear(in_features=8, out_features=8, bias=True)
      (3): ELU(alpha=1.0)
    ))
    (bn0): BatchNorm1d(48, eps=1e-05, momentum=0.1, affine=True, track_running_stats=True)
    (conv1): GINMolecularConv(nn=Sequential(
      (0): Linear(in_features=48, out_features=48, bias=True)
      (1): LeakyReLU(negative_slope=0.01)
      (2): Linear(in_features=48, out_features=48, bias=True)
    ))(edge_transformer=Sequential(
      (0): Linear(in_features=1, out_features=8, bias=True)
      (1): LeakyReLU(negative_slope=0.01)
      (2): Linear(in_features=8, out_features=48, bias=True)
      (3): ELU(alpha=1.0)
    ))
    (bn1): BatchNorm1d(48, eps=1e-05, momentum=0.1, affine=True, track_running_stats=True)
    (conv2): GINMolecularConv(nn=Sequential(
      (0): Linear(in_features=48, out_features=48, bias=True)
      (1): LeakyReLU(negative_slope=0.01)
      (2): Linear(in_features=48, out_features=48, bias=True)
    ))(edge_transformer=Sequential(
      (0): Linear(in_features=1, out_features=8, bias=True)
      (1): LeakyReLU(negative_slope=0.01)
      (2): Linear(in_features=8, out_features=48, bias=True)
      (3): ELU(alpha=1.0)
    ))
    (bn2): BatchNorm1d(48, eps=1e-05, momentum=0.1, affine=True, track_running_stats=True)
    (conv3): GINMolecularConv(nn=Sequential(
      (0): Linear(in_features=48, out_features=48, bias=True)
      (1): LeakyReLU(negative_slope=0.01)
      (2): Linear(in_features=48, out_features=48, bias=True)
    ))(edge_transformer=Sequential(
      (0): Linear(in_features=1, out_features=8, bias=True)
      (1): LeakyReLU(negative_slope=0.01)
      (2): Linear(in_features=8, out_features=48, bias=True)
      (3): ELU(alpha=1.0)
    ))
    (bn3): BatchNorm1d(48, eps=1e-05, momentum=0.1, affine=True, track_running_stats=True)
    (conv4): GINMolecularConv(nn=Sequential(
      (0): Linear(in_features=48, out_features=48, bias=True)
      (1): LeakyReLU(negative_slope=0.01)
      (2): Linear(in_features=48, out_features=48, bias=True)
    ))(edge_transformer=Sequential(
      (0): Linear(in_features=1, out_features=8, bias=True)
      (1): LeakyReLU(negative_slope=0.01)
      (2): Linear(in_features=8, out_features=48, bias=True)
      (3): ELU(alpha=1.0)
    ))
    (bn4): BatchNorm1d(48, eps=1e-05, momentum=0.1, affine=True, track_running_stats=True)
    (set2set): Set2Set(48, 96)
  )
)
optimizer:
Adam (
Parameter Group 0
    amsgrad: False
    betas: (0.9, 0.999)
    eps: 1e-08
    lr: 0.003
    weight_decay: 0.0005
)
loss function:
ContrastiveLoss(similar_margin=0.0, dissimilar_margin=2.0, normalize=True, mean=True)
epoch: 1, train loss: 0.9610269648118452, train acc: 0.6597857700219905, validation acc: 0.5169098143236074.
…
