seed:  666
number of classes: 60
number of epochs to train: 60
batch size: 64
number of workers to load data:  36
device:  cuda
number of gpus:  2
number of classes after further clustering:  87
number of pockets in training set:  22516
number of pockets in validation set:  4793
number of pockets in test set:  4914
model architecture:
MoNet(
  (conv1): GINMolecularConv(nn=Sequential(
    (0): Linear(in_features=5, out_features=32, bias=True)
    (1): LeakyReLU(negative_slope=0.01)
    (2): Linear(in_features=32, out_features=32, bias=True)
  ))(edge_transformer=Sequential(
    (0): Linear(in_features=1, out_features=5, bias=True)
    (1): LeakyReLU(negative_slope=0.01)
    (2): Linear(in_features=5, out_features=5, bias=True)
    (3): ELU(alpha=1.0)
  ))
  (bn1): BatchNorm1d(32, eps=1e-05, momentum=0.1, affine=True, track_running_stats=True)
  (conv2): GINMolecularConv(nn=Sequential(
    (0): Linear(in_features=32, out_features=32, bias=True)
    (1): LeakyReLU(negative_slope=0.01)
    (2): Linear(in_features=32, out_features=32, bias=True)
  ))(edge_transformer=Sequential(
    (0): Linear(in_features=1, out_features=32, bias=True)
    (1): LeakyReLU(negative_slope=0.01)
    (2): Linear(in_features=32, out_features=32, bias=True)
    (3): ELU(alpha=1.0)
  ))
  (bn2): BatchNorm1d(32, eps=1e-05, momentum=0.1, affine=True, track_running_stats=True)
  (conv3): GINMolecularConv(nn=Sequential(
    (0): Linear(in_features=32, out_features=32, bias=True)
    (1): LeakyReLU(negative_slope=0.01)
    (2): Linear(in_features=32, out_features=32, bias=True)
  ))(edge_transformer=Sequential(
    (0): Linear(in_features=1, out_features=32, bias=True)
    (1): LeakyReLU(negative_slope=0.01)
    (2): Linear(in_features=32, out_features=32, bias=True)
    (3): ELU(alpha=1.0)
  ))
  (bn3): BatchNorm1d(32, eps=1e-05, momentum=0.1, affine=True, track_running_stats=True)
  (conv4): GINMolecularConv(nn=Sequential(
    (0): Linear(in_features=32, out_features=32, bias=True)
    (1): LeakyReLU(negative_slope=0.01)
    (2): Linear(in_features=32, out_features=32, bias=True)
  ))(edge_transformer=Sequential(
    (0): Linear(in_features=1, out_features=32, bias=True)
    (1): LeakyReLU(negative_slope=0.01)
    (2): Linear(in_features=32, out_features=32, bias=True)
    (3): ELU(alpha=1.0)
  ))
  (bn4): BatchNorm1d(32, eps=1e-05, momentum=0.1, affine=True, track_running_stats=True)
  (fc1): Linear(in_features=32, out_features=32, bias=True)
  (fc2): Linear(in_features=32, out_features=87, bias=True)
)
optimizer:
Adam (
Parameter Group 0
    amsgrad: False
    betas: (0.9, 0.999)
    eps: 1e-08
    lr: 0.001
    weight_decay: 0.0005
)
loss function:
NLLLoss()
begin training...
epoch: 1, train loss: 7.1573745197588226, acc: 0.018120447681648607, val loss: 4.448659272972885, acc: 0.021281034842478615
epoch: 2, train loss: 4.4470313705502615, acc: 0.02647006573103571, val loss: 4.422567233744828, acc: 0.019820571667014397
…
