…
number of epochs:  200
batch size:  256
number of workers to load data:  36
device:  cuda
number of classes after merging:  14
number of pockets in training set:  16894
number of pockets in test set:  4231
first 5 pockets in train set of cluster 0 before merging (to verify reproducibility):
['4gi7C01', '6djqD00', '8icoC00', '1ofhB00', '2zceA00']
first 5 pockets in test set of cluster 0 before merging (to verify reproducibility):
['3c4vB00', '3jbzA00', '5a6nA00', '2oxdA00', '1a9cC01']
model architecture:
DeepDruG(
  (embedding_net): JKEGINEmbeddingNet(
    (conv0): GINConv(nn=Sequential(
      (0): Linear(in_features=11, out_features=96, bias=True)
      (1): LeakyReLU(negative_slope=0.01)
      (2): Linear(in_features=96, out_features=96, bias=True)
    ))
    (bn0): BatchNorm1d(96, eps=1e-05, momentum=0.1, affine=True, track_running_stats=True)
    (conv1): GINConv(nn=Sequential(
      (0): Linear(in_features=96, out_features=96, bias=True)
      (1): LeakyReLU(negative_slope=0.01)
      (2): Linear(in_features=96, out_features=96, bias=True)
    ))
    (bn1): BatchNorm1d(96, eps=1e-05, momentum=0.1, affine=True, track_running_stats=True)
    (conv2): GINConv(nn=Sequential(
      (0): Linear(in_features=96, out_features=96, bias=True)
      (1): LeakyReLU(negative_slope=0.01)
      (2): Linear(in_features=96, out_features=96, bias=True)
    ))
    (bn2): BatchNorm1d(96, eps=1e-05, momentum=0.1, affine=True, track_running_stats=True)
    (conv3): GINConv(nn=Sequential(
      (0): Linear(in_features=96, out_features=96, bias=True)
      (1): LeakyReLU(negative_slope=0.01)
      (2): Linear(in_features=96, out_features=96, bias=True)
    ))
    (bn3): BatchNorm1d(96, eps=1e-05, momentum=0.1, affine=True, track_running_stats=True)
    (conv4): GINConv(nn=Sequential(
      (0): Linear(in_features=96, out_features=96, bias=True)
      (1): LeakyReLU(negative_slope=0.01)
      (2): Linear(in_features=96, out_features=96, bias=True)
    ))
    (bn4): BatchNorm1d(96, eps=1e-05, momentum=0.1, affine=True, track_running_stats=True)
    (conv5): GINConv(nn=Sequential(
      (0): Linear(in_features=96, out_features=96, bias=True)
      (1): LeakyReLU(negative_slope=0.01)
      (2): Linear(in_features=96, out_features=96, bias=True)
    ))
    (bn5): BatchNorm1d(96, eps=1e-05, momentum=0.1, affine=True, track_running_stats=True)
    (set2set): Set2Set(96, 192)
  )
  (fc1): Linear(in_features=192, out_features=96, bias=True)
  (fc2): Linear(in_features=96, out_features=14, bias=True)
)
optimizer:
Adam (
Parameter Group 0
    amsgrad: False
    betas: (0.9, 0.999)
    eps: 1e-08
    lr: 0.003
    weight_decay: 0.0007
)
learning rate scheduler: 
<torch.optim.lr_scheduler.ReduceLROnPlateau object at 0x2af8608fc640>
initial gamma of FocalLoss:  0
increase gamma of FocalLoss at epochs:  [25, 100, 170]
loss function:
FocalLoss(gamma=0, alpha=tensor([1., 1., 1., 1., 1., 1., 1., 1., 1., 1., 1., 1., 1., 1.],
…
