…
number of epochs:  200
batch size:  256
number of workers to load data:  36
device:  cuda
number of classes after merging:  14
number of pockets in training set:  16894
number of pockets in test set:  4231
first 5 pockets in train set of cluster 0 before merging (to verify reproducibility):
['4eqmC00', '6hxjB01', '4zirA01', '3k8tA01', '4mo5B01']
first 5 pockets in test set of cluster 0 before merging (to verify reproducibility):
['2hcrB00', '6i0oA00', '1hwkA02', '3b1fA00', '5vxaA00']
model architecture:
DeepDruG(
  (embedding_net): JKMCNMMEmbeddingNet(
    (conv0): MCNMMConv(
      (nn): Sequential(
        (0): Linear(in_features=33, out_features=96, bias=True)
        (1): LeakyReLU(negative_slope=0.01)
        (2): Linear(in_features=96, out_features=96, bias=True)
      )
      (NMMs): ModuleList(
        (0): NMMConv(edge_nn=Sequential(
          (0): Linear(in_features=1, out_features=8, bias=True)
          (1): LeakyReLU(negative_slope=0.01)
          (2): Linear(in_features=8, out_features=1, bias=True)
          (3): ELU(alpha=1.0)
        ))
        (1): NMMConv(edge_nn=Sequential(
          (0): Linear(in_features=1, out_features=8, bias=True)
          (1): LeakyReLU(negative_slope=0.01)
          (2): Linear(in_features=8, out_features=1, bias=True)
          (3): ELU(alpha=1.0)
        ))
        (2): NMMConv(edge_nn=Sequential(
          (0): Linear(in_features=1, out_features=8, bias=True)
          (1): LeakyReLU(negative_slope=0.01)
          (2): Linear(in_features=8, out_features=1, bias=True)
          (3): ELU(alpha=1.0)
        ))
      )
    )
    (bn0): BatchNorm1d(96, eps=1e-05, momentum=0.1, affine=True, track_running_stats=True)
    (conv1): MCNMMConv(
      (nn): Sequential(
        (0): Linear(in_features=288, out_features=96, bias=True)
        (1): LeakyReLU(negative_slope=0.01)
        (2): Linear(in_features=96, out_features=96, bias=True)
      )
      (NMMs): ModuleList(
        (0): NMMConv(edge_nn=Sequential(
          (0): Linear(in_features=1, out_features=8, bias=True)
          (1): LeakyReLU(negative_slope=0.01)
          (2): Linear(in_features=8, out_features=1, bias=True)
          (3): ELU(alpha=1.0)
        ))
        (1): NMMConv(edge_nn=Sequential(
          (0): Linear(in_features=1, out_features=8, bias=True)
          (1): LeakyReLU(negative_slope=0.01)
          (2): Linear(in_features=8, out_features=1, bias=True)
          (3): ELU(alpha=1.0)
        ))
        (2): NMMConv(edge_nn=Sequential(
          (0): Linear(in_features=1, out_features=8, bias=True)
          (1): LeakyReLU(negative_slope=0.01)
          (2): Linear(in_features=8, out_features=1, bias=True)
          (3): ELU(alpha=1.0)
        ))
      )
    )
    (bn1): BatchNorm1d(96, eps=1e-05, momentum=0.1, affine=True, track_running_stats=True)
    (conv2): MCNMMConv(
      (nn): Sequential(
        (0): Linear(in_features=288, out_features=96, bias=True)
        (1): LeakyReLU(negative_slope=0.01)
        (2): Linear(in_features=96, out_features=96, bias=True)
      )
      (NMMs): ModuleList(
        (0): NMMConv(edge_nn=Sequential(
          (0): Linear(in_features=1, out_features=8, bias=True)
          (1): LeakyReLU(negative_slope=0.01)
          (2): Linear(in_features=8, out_features=1, bias=True)
          (3): ELU(alpha=1.0)
        ))
        (1): NMMConv(edge_nn=Sequential(
          (0): Linear(in_features=1, out_features=8, bias=True)
          (1): LeakyReLU(negative_slope=0.01)
          (2): Linear(in_features=8, out_features=1, bias=True)
          (3): ELU(alpha=1.0)
        ))
        (2): NMMConv(edge_nn=Sequential(
          (0): Linear(in_features=1, out_features=8, bias=True)
          (1): LeakyReLU(negative_slope=0.01)
          (2): Linear(in_features=8, out_features=1, bias=True)
          (3): ELU(alpha=1.0)
        ))
      )
    )
    (bn2): BatchNorm1d(96, eps=1e-05, momentum=0.1, affine=True, track_running_stats=True)
    (conv3): MCNMMConv(
      (nn): Sequential(
        (0): Linear(in_features=288, out_features=96, bias=True)
        (1): LeakyReLU(negative_slope=0.01)
        (2): Linear(in_features=96, out_features=96, bias=True)
      )
      (NMMs): ModuleList(
        (0): NMMConv(edge_nn=Sequential(
          (0): Linear(in_features=1, out_features=8, bias=True)
          (1): LeakyReLU(negative_slope=0.01)
          (2): Linear(in_features=8, out_features=1, bias=True)
          (3): ELU(alpha=1.0)
        ))
        (1): NMMConv(edge_nn=Sequential(
          (0): Linear(in_features=1, out_features=8, bias=True)
          (1): LeakyReLU(negative_slope=0.01)
          (2): Linear(in_features=8, out_features=1, bias=True)
          (3): ELU(alpha=1.0)
        ))
        (2): NMMConv(edge_nn=Sequential(
          (0): Linear(in_features=1, out_features=8, bias=True)
          (1): LeakyReLU(negative_slope=0.01)
          (2): Linear(in_features=8, out_features=1, bias=True)
          (3): ELU(alpha=1.0)
        ))
      )
    )
    (bn3): BatchNorm1d(96, eps=1e-05, momentum=0.1, affine=True, track_running_stats=True)
    (conv4): MCNMMConv(
      (nn): Sequential(
        (0): Linear(in_features=288, out_features=96, bias=True)
        (1): LeakyReLU(negative_slope=0.01)
        (2): Linear(in_features=96, out_features=96, bias=True)
      )
      (NMMs): ModuleList(
        (0): NMMConv(edge_nn=Sequential(
          (0): Linear(in_features=1, out_features=8, bias=True)
          (1): LeakyReLU(negative_slope=0.01)
          (2): Linear(in_features=8, out_features=1, bias=True)
          (3): ELU(alpha=1.0)
        ))
        (1): NMMConv(edge_nn=Sequential(
          (0): Linear(in_features=1, out_features=8, bias=True)
          (1): LeakyReLU(negative_slope=0.01)
          (2): Linear(in_features=8, out_features=1, bias=True)
          (3): ELU(alpha=1.0)
        ))
        (2): NMMConv(edge_nn=Sequential(
          (0): Linear(in_features=1, out_features=8, bias=True)
          (1): LeakyReLU(negative_slope=0.01)
          (2): Linear(in_features=8, out_features=1, bias=True)
          (3): ELU(alpha=1.0)
        ))
      )
    )
    (bn4): BatchNorm1d(96, eps=1e-05, momentum=0.1, affine=True, track_running_stats=True)
    (conv5): MCNMMConv(
      (nn): Sequential(
        (0): Linear(in_features=288, out_features=96, bias=True)
        (1): LeakyReLU(negative_slope=0.01)
        (2): Linear(in_features=96, out_features=96, bias=True)
      )
      (NMMs): ModuleList(
        (0): NMMConv(edge_nn=Sequential(
          (0): Linear(in_features=1, out_features=8, bias=True)
          (1): LeakyReLU(negative_slope=0.01)
          (2): Linear(in_features=8, out_features=1, bias=True)
          (3): ELU(alpha=1.0)
        ))
        (1): NMMConv(edge_nn=Sequential(
          (0): Linear(in_features=1, out_features=8, bias=True)
          (1): LeakyReLU(negative_slope=0.01)
          (2): Linear(in_features=8, out_features=1, bias=True)
          (3): ELU(alpha=1.0)
        ))
        (2): NMMConv(edge_nn=Sequential(
          (0): Linear(in_features=1, out_features=8, bias=True)
          (1): LeakyReLU(negative_slope=0.01)
          (2): Linear(in_features=8, out_features=1, bias=True)
          (3): ELU(alpha=1.0)
        ))
      )
    )
    (bn5): BatchNorm1d(96, eps=1e-05, momentum=0.1, affine=True, track_running_stats=True)
    (set2set): Set2Set(96, 192)
  )
  (fc1): Linear(in_features=192, out_features=96, bias=True)
  (fc2): Linear(in_features=96, out_features=14, bias=True)
)
optimizer:
Adam (
Parameter Group 0
    amsgrad: False
    betas: (0.9, 0.999)
    eps: 1e-08
    lr: 0.003
    weight_decay: 0.0007
)
learning rate scheduler: 
<torch.optim.lr_scheduler.ReduceLROnPlateau object at 0x2af845ed1880>
initial gamma of FocalLoss:  0
increase gamma of FocalLoss at epochs:  [25, 100, 170]
loss function:
FocalLoss(gamma=0, alpha=tensor([1., 1., 1., 1., 1., 1., 1., 1., 1., 1., 1., 1., 1., 1.],
…
