…
begin to select hard pairs at epoch 1200
batch size: 96
number of hardest positive pairs for each mini-batch:  128
number of hardest negative pairs for each mini-batch:  128
number of workers to load data:  36
similar margin of contrastive loss: 0.0
dissimilar margin of contrastive loss: 2.0
device:  cuda
number of classes after merging:  7
number of pockets in training set:  10527
number of pockets in validation set:  2254
number of pockets in test set:  2263
model architecture:
SelectiveSiameseNet(
  (embedding_net): EmbeddingNet(
    (set2set): Set2Set(32, 64)
    (conv1): GINMolecularConv(nn=Sequential(
      (0): Linear(in_features=11, out_features=32, bias=True)
      (1): LeakyReLU(negative_slope=0.01)
      (2): Linear(in_features=32, out_features=32, bias=True)
    ))(edge_transformer=Sequential(
      (0): Linear(in_features=1, out_features=8, bias=True)
      (1): LeakyReLU(negative_slope=0.01)
      (2): Linear(in_features=8, out_features=11, bias=True)
      (3): ELU(alpha=1.0)
    ))
    (bn1): BatchNorm1d(32, eps=1e-05, momentum=0.1, affine=True, track_running_stats=True)
    (conv2): GINMolecularConv(nn=Sequential(
      (0): Linear(in_features=32, out_features=32, bias=True)
      (1): LeakyReLU(negative_slope=0.01)
      (2): Linear(in_features=32, out_features=32, bias=True)
    ))(edge_transformer=Sequential(
      (0): Linear(in_features=1, out_features=8, bias=True)
      (1): LeakyReLU(negative_slope=0.01)
      (2): Linear(in_features=8, out_features=32, bias=True)
      (3): ELU(alpha=1.0)
    ))
    (bn2): BatchNorm1d(32, eps=1e-05, momentum=0.1, affine=True, track_running_stats=True)
    (conv3): GINMolecularConv(nn=Sequential(
      (0): Linear(in_features=32, out_features=32, bias=True)
      (1): LeakyReLU(negative_slope=0.01)
      (2): Linear(in_features=32, out_features=32, bias=True)
    ))(edge_transformer=Sequential(
      (0): Linear(in_features=1, out_features=8, bias=True)
      (1): LeakyReLU(negative_slope=0.01)
      (2): Linear(in_features=8, out_features=32, bias=True)
      (3): ELU(alpha=1.0)
    ))
    (bn3): BatchNorm1d(32, eps=1e-05, momentum=0.1, affine=True, track_running_stats=True)
    (conv4): GINMolecularConv(nn=Sequential(
      (0): Linear(in_features=32, out_features=32, bias=True)
      (1): LeakyReLU(negative_slope=0.01)
      (2): Linear(in_features=32, out_features=32, bias=True)
    ))(edge_transformer=Sequential(
      (0): Linear(in_features=1, out_features=8, bias=True)
      (1): LeakyReLU(negative_slope=0.01)
      (2): Linear(in_features=8, out_features=32, bias=True)
      (3): ELU(alpha=1.0)
    ))
    (bn4): BatchNorm1d(32, eps=1e-05, momentum=0.1, affine=True, track_running_stats=True)
  )
)
optimizer:
Adam (
Parameter Group 0
    amsgrad: False
    betas: (0.9, 0.999)
    eps: 1e-08
    lr: 0.003
    weight_decay: 0.0005
)
loss function:
SelectiveContrastiveLoss(similar_margin=0.0, dissimilar_margin=2.0, num_pos_pair=128, num_neg_pair=128)
epoch: 1, train loss: 0.8916578752185227, validation loss: 0.9759255129358043.
…
