…
batch size: 256
number of workers to load data:  36
device:  cuda
number of gpus:  2
features to use:  ['charge', 'hydrophobicity', 'binding_probability', 'distance_to_center', 'sequence_entropy']
number of pockets in training set:  22527
number of pockets in validation set:  4806
number of pockets in test set:  4890
number of train positive pairs: 180000
number of train negative pairs: 177000
number of validation positive pairs: 47172
number of validation negative pairs: 44250
model architecture:
SiameseNet(
  (embedding_net): EmbeddingNet(
    (global_att): GlobalAttention(gate_nn=Sequential(
      (0): Linear(in_features=69, out_features=69, bias=True)
      (1): LeakyReLU(negative_slope=0.01)
      (2): Linear(in_features=69, out_features=1, bias=True)
      (3): LeakyReLU(negative_slope=0.01)
    ), nn=Sequential(
      (0): Linear(in_features=69, out_features=69, bias=True)
      (1): LeakyReLU(negative_slope=0.01)
      (2): Linear(in_features=69, out_features=69, bias=True)
    ))
    (conv1): GINMolecularConv(nn=Sequential(
      (0): Linear(in_features=5, out_features=64, bias=True)
      (1): LeakyReLU(negative_slope=0.01)
      (2): Linear(in_features=64, out_features=64, bias=True)
    ))(edge_transformer=Sequential(
      (0): Linear(in_features=1, out_features=8, bias=True)
      (1): LeakyReLU(negative_slope=0.01)
      (2): Linear(in_features=8, out_features=5, bias=True)
      (3): ELU(alpha=1.0)
    ))
    (bn1): BatchNorm1d(64, eps=1e-05, momentum=0.1, affine=True, track_running_stats=True)
    (conv2): GINMolecularConv(nn=Sequential(
      (0): Linear(in_features=64, out_features=64, bias=True)
      (1): LeakyReLU(negative_slope=0.01)
      (2): Linear(in_features=64, out_features=64, bias=True)
    ))(edge_transformer=Sequential(
      (0): Linear(in_features=1, out_features=8, bias=True)
      (1): LeakyReLU(negative_slope=0.01)
      (2): Linear(in_features=8, out_features=64, bias=True)
      (3): ELU(alpha=1.0)
    ))
    (bn2): BatchNorm1d(64, eps=1e-05, momentum=0.1, affine=True, track_running_stats=True)
    (conv3): GINMolecularConv(nn=Sequential(
      (0): Linear(in_features=64, out_features=64, bias=True)
      (1): LeakyReLU(negative_slope=0.01)
      (2): Linear(in_features=64, out_features=64, bias=True)
    ))(edge_transformer=Sequential(
      (0): Linear(in_features=1, out_features=8, bias=True)
      (1): LeakyReLU(negative_slope=0.01)
      (2): Linear(in_features=8, out_features=64, bias=True)
      (3): ELU(alpha=1.0)
    ))
    (bn3): BatchNorm1d(64, eps=1e-05, momentum=0.1, affine=True, track_running_stats=True)
    (conv4): GINMolecularConv(nn=Sequential(
      (0): Linear(in_features=64, out_features=64, bias=True)
      (1): LeakyReLU(negative_slope=0.01)
      (2): Linear(in_features=64, out_features=64, bias=True)
    ))(edge_transformer=Sequential(
      (0): Linear(in_features=1, out_features=8, bias=True)
      (1): LeakyReLU(negative_slope=0.01)
      (2): Linear(in_features=8, out_features=64, bias=True)
      (3): ELU(alpha=1.0)
    ))
    (bn4): BatchNorm1d(64, eps=1e-05, momentum=0.1, affine=True, track_running_stats=True)
  )
)
optimizer:
Adam (
Parameter Group 0
    amsgrad: False
    betas: (0.9, 0.999)
    eps: 1e-08
    lr: 0.003
    weight_decay: 0.001
)
loss function:
ContrastiveLoss(margin=2.0, normalize=True, mean=True)
epoch: 1, train loss: 0.8567325410388765, validation loss: 0.8569185504352946.
epoch: 2, train loss: 0.8244316767844834, validation loss: 0.8597786654213043.
…
