…
number of hardest negative pairs for each mini-batch:  256
number of workers to load data:  36
similar margin of contrastive loss: 0.0
dissimilar margin of contrastive loss: 2.0
device:  cuda
number of classes after merging:  11
number of pockets in training set:  14097
number of pockets in validation set:  3016
number of pockets in test set:  3031
first 5 pockets in train set of cluster 0 before merging (to verify reproducibility):
['6brxA00', '4c0lA00', '3rs8A02', '4nk4F00', '5fogD00']
model architecture:
SelectiveSiameseNet(
  (embedding_net): ResidualEmbeddingNet(
    (conv1): GINMolecularConv(nn=Sequential(
      (0): Linear(in_features=8, out_features=48, bias=True)
      (1): LeakyReLU(negative_slope=0.01)
      (2): Linear(in_features=48, out_features=48, bias=True)
    ))(edge_transformer=Sequential(
      (0): Linear(in_features=1, out_features=8, bias=True)
      (1): LeakyReLU(negative_slope=0.01)
      (2): Linear(in_features=8, out_features=8, bias=True)
      (3): ELU(alpha=1.0)
    ))
    (rb_2): ResidualBlock(
      (bn1): BatchNorm1d(48, eps=1e-05, momentum=0.1, affine=True, track_running_stats=True)
      (conv1): GINMolecularConv(nn=Sequential(
        (0): Linear(in_features=48, out_features=48, bias=True)
        (1): LeakyReLU(negative_slope=0.01)
        (2): Linear(in_features=48, out_features=48, bias=True)
      ))(edge_transformer=Sequential(
        (0): Linear(in_features=1, out_features=8, bias=True)
        (1): LeakyReLU(negative_slope=0.01)
        (2): Linear(in_features=8, out_features=48, bias=True)
        (3): ELU(alpha=1.0)
      ))
    )
    (rb_3): ResidualBlock(
      (bn1): BatchNorm1d(48, eps=1e-05, momentum=0.1, affine=True, track_running_stats=True)
      (conv1): GINMolecularConv(nn=Sequential(
        (0): Linear(in_features=48, out_features=48, bias=True)
        (1): LeakyReLU(negative_slope=0.01)
        (2): Linear(in_features=48, out_features=48, bias=True)
      ))(edge_transformer=Sequential(
        (0): Linear(in_features=1, out_features=8, bias=True)
        (1): LeakyReLU(negative_slope=0.01)
        (2): Linear(in_features=8, out_features=48, bias=True)
        (3): ELU(alpha=1.0)
      ))
    )
    (rb_4): ResidualBlock(
      (bn1): BatchNorm1d(48, eps=1e-05, momentum=0.1, affine=True, track_running_stats=True)
      (conv1): GINMolecularConv(nn=Sequential(
        (0): Linear(in_features=48, out_features=48, bias=True)
        (1): LeakyReLU(negative_slope=0.01)
        (2): Linear(in_features=48, out_features=48, bias=True)
      ))(edge_transformer=Sequential(
        (0): Linear(in_features=1, out_features=8, bias=True)
        (1): LeakyReLU(negative_slope=0.01)
        (2): Linear(in_features=8, out_features=48, bias=True)
        (3): ELU(alpha=1.0)
      ))
    )
    (rb_5): ResidualBlock(
      (bn1): BatchNorm1d(48, eps=1e-05, momentum=0.1, affine=True, track_running_stats=True)
      (conv1): GINMolecularConv(nn=Sequential(
        (0): Linear(in_features=48, out_features=48, bias=True)
        (1): LeakyReLU(negative_slope=0.01)
        (2): Linear(in_features=48, out_features=48, bias=True)
      ))(edge_transformer=Sequential(
        (0): Linear(in_features=1, out_features=8, bias=True)
        (1): LeakyReLU(negative_slope=0.01)
        (2): Linear(in_features=8, out_features=48, bias=True)
        (3): ELU(alpha=1.0)
      ))
    )
    (rb_6): ResidualBlock(
      (bn1): BatchNorm1d(48, eps=1e-05, momentum=0.1, affine=True, track_running_stats=True)
      (conv1): GINMolecularConv(nn=Sequential(
        (0): Linear(in_features=48, out_features=48, bias=True)
        (1): LeakyReLU(negative_slope=0.01)
        (2): Linear(in_features=48, out_features=48, bias=True)
      ))(edge_transformer=Sequential(
        (0): Linear(in_features=1, out_features=8, bias=True)
        (1): LeakyReLU(negative_slope=0.01)
        (2): Linear(in_features=8, out_features=48, bias=True)
        (3): ELU(alpha=1.0)
      ))
    )
    (rb_7): ResidualBlock(
      (bn1): BatchNorm1d(48, eps=1e-05, momentum=0.1, affine=True, track_running_stats=True)
      (conv1): GINMolecularConv(nn=Sequential(
        (0): Linear(in_features=48, out_features=48, bias=True)
        (1): LeakyReLU(negative_slope=0.01)
        (2): Linear(in_features=48, out_features=48, bias=True)
      ))(edge_transformer=Sequential(
        (0): Linear(in_features=1, out_features=8, bias=True)
        (1): LeakyReLU(negative_slope=0.01)
        (2): Linear(in_features=8, out_features=48, bias=True)
        (3): ELU(alpha=1.0)
      ))
    )
    (rb_8): ResidualBlock(
      (bn1): BatchNorm1d(48, eps=1e-05, momentum=0.1, affine=True, track_running_stats=True)
      (conv1): GINMolecularConv(nn=Sequential(
        (0): Linear(in_features=48, out_features=48, bias=True)
        (1): LeakyReLU(negative_slope=0.01)
        (2): Linear(in_features=48, out_features=48, bias=True)
      ))(edge_transformer=Sequential(
        (0): Linear(in_features=1, out_features=8, bias=True)
        (1): LeakyReLU(negative_slope=0.01)
        (2): Linear(in_features=8, out_features=48, bias=True)
        (3): ELU(alpha=1.0)
      ))
    )
    (bn_8): BatchNorm1d(48, eps=1e-05, momentum=0.1, affine=True, track_running_stats=True)
    (set2set): Set2Set(48, 96)
  )
)
optimizer:
Adam (
Parameter Group 0
    amsgrad: False
    betas: (0.9, 0.999)
    eps: 1e-08
    lr: 0.003
    weight_decay: 0.0005
)
loss function:
SelectiveContrastiveLoss(similar_margin=0.0, dissimilar_margin=2.0, num_pos_pair=192, num_neg_pair=256)
epoch: 1, train loss: 1.603620483159892, train acc: 0.6155580608793687, validation acc: 0.46949602122015915.
…
