…
number of pockets in validation set:  3162
number of pockets in test set:  3183
first 5 pockets in train set of cluster 0 before merging (to verify reproducibility):
['4gi7C01', '6djqD00', '8icoC00', '1ofhB00', '2zceA00']
first 5 pockets in val set of cluster 0 before merging (to verify reproducibility):
['1w46A00', '4j97A00', '4iqlB01', '2wtkB00', '6o7zA00']
first 5 pockets in test set of cluster 0 before merging (to verify reproducibility):
['1tlzA00', '5t5iH01', '5t48A00', '4q5hA00', '5gjcA00']
model architecture:
MoNet(
  (embedding_net): JKMCNMMEmbeddingNet(
    (conv0): MCNMMConv(
      (nn): Sequential(
        (0): Linear(in_features=22, out_features=64, bias=True)
        (1): LeakyReLU(negative_slope=0.01)
        (2): Linear(in_features=64, out_features=64, bias=True)
      )
      (NMMs): ModuleList(
        (0): NMMConv(edge_nn=Sequential(
          (0): Linear(in_features=1, out_features=8, bias=True)
          (1): LeakyReLU(negative_slope=0.01)
          (2): Linear(in_features=8, out_features=1, bias=True)
          (3): ELU(alpha=1.0)
        ))
        (1): NMMConv(edge_nn=Sequential(
          (0): Linear(in_features=1, out_features=8, bias=True)
          (1): LeakyReLU(negative_slope=0.01)
          (2): Linear(in_features=8, out_features=1, bias=True)
          (3): ELU(alpha=1.0)
        ))
      )
    )
    (bn0): BatchNorm1d(64, eps=1e-05, momentum=0.1, affine=True, track_running_stats=True)
    (conv1): MCNMMConv(
      (nn): Sequential(
        (0): Linear(in_features=128, out_features=64, bias=True)
        (1): LeakyReLU(negative_slope=0.01)
        (2): Linear(in_features=64, out_features=64, bias=True)
      )
      (NMMs): ModuleList(
        (0): NMMConv(edge_nn=Sequential(
          (0): Linear(in_features=1, out_features=8, bias=True)
          (1): LeakyReLU(negative_slope=0.01)
          (2): Linear(in_features=8, out_features=1, bias=True)
          (3): ELU(alpha=1.0)
        ))
        (1): NMMConv(edge_nn=Sequential(
          (0): Linear(in_features=1, out_features=8, bias=True)
          (1): LeakyReLU(negative_slope=0.01)
          (2): Linear(in_features=8, out_features=1, bias=True)
          (3): ELU(alpha=1.0)
        ))
      )
    )
    (bn1): BatchNorm1d(64, eps=1e-05, momentum=0.1, affine=True, track_running_stats=True)
    (conv2): MCNMMConv(
      (nn): Sequential(
        (0): Linear(in_features=128, out_features=64, bias=True)
        (1): LeakyReLU(negative_slope=0.01)
        (2): Linear(in_features=64, out_features=64, bias=True)
      )
      (NMMs): ModuleList(
        (0): NMMConv(edge_nn=Sequential(
          (0): Linear(in_features=1, out_features=8, bias=True)
          (1): LeakyReLU(negative_slope=0.01)
          (2): Linear(in_features=8, out_features=1, bias=True)
          (3): ELU(alpha=1.0)
        ))
        (1): NMMConv(edge_nn=Sequential(
          (0): Linear(in_features=1, out_features=8, bias=True)
          (1): LeakyReLU(negative_slope=0.01)
          (2): Linear(in_features=8, out_features=1, bias=True)
          (3): ELU(alpha=1.0)
        ))
      )
    )
    (bn2): BatchNorm1d(64, eps=1e-05, momentum=0.1, affine=True, track_running_stats=True)
    (conv3): MCNMMConv(
      (nn): Sequential(
        (0): Linear(in_features=128, out_features=64, bias=True)
        (1): LeakyReLU(negative_slope=0.01)
        (2): Linear(in_features=64, out_features=64, bias=True)
      )
      (NMMs): ModuleList(
        (0): NMMConv(edge_nn=Sequential(
          (0): Linear(in_features=1, out_features=8, bias=True)
          (1): LeakyReLU(negative_slope=0.01)
          (2): Linear(in_features=8, out_features=1, bias=True)
          (3): ELU(alpha=1.0)
        ))
        (1): NMMConv(edge_nn=Sequential(
          (0): Linear(in_features=1, out_features=8, bias=True)
          (1): LeakyReLU(negative_slope=0.01)
          (2): Linear(in_features=8, out_features=1, bias=True)
          (3): ELU(alpha=1.0)
        ))
      )
    )
    (bn3): BatchNorm1d(64, eps=1e-05, momentum=0.1, affine=True, track_running_stats=True)
    (conv4): MCNMMConv(
      (nn): Sequential(
        (0): Linear(in_features=128, out_features=64, bias=True)
        (1): LeakyReLU(negative_slope=0.01)
        (2): Linear(in_features=64, out_features=64, bias=True)
      )
      (NMMs): ModuleList(
        (0): NMMConv(edge_nn=Sequential(
          (0): Linear(in_features=1, out_features=8, bias=True)
          (1): LeakyReLU(negative_slope=0.01)
          (2): Linear(in_features=8, out_features=1, bias=True)
          (3): ELU(alpha=1.0)
        ))
        (1): NMMConv(edge_nn=Sequential(
          (0): Linear(in_features=1, out_features=8, bias=True)
          (1): LeakyReLU(negative_slope=0.01)
          (2): Linear(in_features=8, out_features=1, bias=True)
          (3): ELU(alpha=1.0)
        ))
      )
    )
    (bn4): BatchNorm1d(64, eps=1e-05, momentum=0.1, affine=True, track_running_stats=True)
    (conv5): MCNMMConv(
      (nn): Sequential(
        (0): Linear(in_features=128, out_features=64, bias=True)
        (1): LeakyReLU(negative_slope=0.01)
        (2): Linear(in_features=64, out_features=64, bias=True)
      )
      (NMMs): ModuleList(
        (0): NMMConv(edge_nn=Sequential(
          (0): Linear(in_features=1, out_features=8, bias=True)
          (1): LeakyReLU(negative_slope=0.01)
          (2): Linear(in_features=8, out_features=1, bias=True)
          (3): ELU(alpha=1.0)
        ))
        (1): NMMConv(edge_nn=Sequential(
          (0): Linear(in_features=1, out_features=8, bias=True)
          (1): LeakyReLU(negative_slope=0.01)
          (2): Linear(in_features=8, out_features=1, bias=True)
          (3): ELU(alpha=1.0)
        ))
      )
    )
    (bn5): BatchNorm1d(64, eps=1e-05, momentum=0.1, affine=True, track_running_stats=True)
    (set2set): Set2Set(64, 128)
  )
  (fc1): Linear(in_features=128, out_features=64, bias=True)
  (fc2): Linear(in_features=64, out_features=14, bias=True)
)
optimizer:
Adam (
Parameter Group 0
    amsgrad: False
    betas: (0.9, 0.999)
    eps: 1e-08
    lr: 0.003
    weight_decay: 0.0006
)
learning rate scheduler: 
<torch.optim.lr_scheduler.ReduceLROnPlateau object at 0x2b53258b03a0>
initial gamma of FocalLoss:  0
increase gamma of FocalLoss at epochs:  [25, 100, 170]
loss function:
FocalLoss(gamma=0, alpha=tensor([1., 1., 1., 1., 1., 1., 1., 1., 1., 1., 1., 1., 1., 1.],
…
