number of classes: 60
max number of data of each class: 5000
batch size: 512
number of workers to load data:  36
device:  cuda
number of gpus:  2
number of pockets in training set:  18872
number of pockets in validation set:  6274
number of pockets in test set:  6348
number of train positive pairs: 180000
number of train negative pairs: 177000
number of validation positive pairs: 24000
number of validation negative pairs: 26550
model architecture:
SiameseNet(
  (embedding_net): EmbeddingNet(
    (conv1): GINMolecularConv(nn=Sequential(
      (0): Linear(in_features=5, out_features=32, bias=True)
      (1): LeakyReLU(negative_slope=0.01)
      (2): Linear(in_features=32, out_features=32, bias=True)
    ))(edge_transformer=Sequential(
      (0): Linear(in_features=1, out_features=5, bias=True)
      (1): LeakyReLU(negative_slope=0.01)
      (2): Linear(in_features=5, out_features=5, bias=True)
      (3): ELU(alpha=1.0)
    ))
    (bn1): BatchNorm1d(32, eps=1e-05, momentum=0.1, affine=True, track_running_stats=True)
    (conv2): GINMolecularConv(nn=Sequential(
      (0): Linear(in_features=32, out_features=32, bias=True)
      (1): LeakyReLU(negative_slope=0.01)
      (2): Linear(in_features=32, out_features=32, bias=True)
    ))(edge_transformer=Sequential(
      (0): Linear(in_features=1, out_features=32, bias=True)
      (1): LeakyReLU(negative_slope=0.01)
      (2): Linear(in_features=32, out_features=32, bias=True)
      (3): ELU(alpha=1.0)
    ))
    (bn2): BatchNorm1d(32, eps=1e-05, momentum=0.1, affine=True, track_running_stats=True)
    (conv3): GINMolecularConv(nn=Sequential(
      (0): Linear(in_features=32, out_features=32, bias=True)
      (1): LeakyReLU(negative_slope=0.01)
      (2): Linear(in_features=32, out_features=32, bias=True)
    ))(edge_transformer=Sequential(
      (0): Linear(in_features=1, out_features=32, bias=True)
      (1): LeakyReLU(negative_slope=0.01)
      (2): Linear(in_features=32, out_features=32, bias=True)
      (3): ELU(alpha=1.0)
    ))
    (bn3): BatchNorm1d(32, eps=1e-05, momentum=0.1, affine=True, track_running_stats=True)
    (conv4): GINMolecularConv(nn=Sequential(
      (0): Linear(in_features=32, out_features=32, bias=True)
      (1): LeakyReLU(negative_slope=0.01)
      (2): Linear(in_features=32, out_features=32, bias=True)
    ))(edge_transformer=Sequential(
      (0): Linear(in_features=1, out_features=32, bias=True)
      (1): LeakyReLU(negative_slope=0.01)
      (2): Linear(in_features=32, out_features=32, bias=True)
      (3): ELU(alpha=1.0)
    ))
    (bn4): BatchNorm1d(32, eps=1e-05, momentum=0.1, affine=True, track_running_stats=True)
  )
)
optimizer:
Adam (
Parameter Group 0
    amsgrad: False
    betas: (0.9, 0.999)
    eps: 1e-08
    lr: 0.001
    weight_decay: 0.0002
)
loss function:
ContrastiveLoss(margin=2.0, normalize=True, mean=True)
number of epochs to train: 100
train loss: 0.8449847905348663, validation loss: 0.8070159978517557.
train loss: 0.7800090149951582, validation loss: 0.7856080393503493.
…
